…
  File "/data6/arllan/miniconda/envs/espnetenv/espnetenv/lib/python3.10/runpy.py", line 196, in _run_module_as_main
    return _run_code(code, main_globals, None,
  File "/data6/arllan/miniconda/envs/espnetenv/espnetenv/lib/python3.10/runpy.py", line 86, in _run_code
    exec(code, run_globals)
  File "/data5/arllan/espnet/espnet2/bin/launch.py", line 384, in <module>
    main()
  File "/data5/arllan/espnet/espnet2/bin/launch.py", line 375, in main
    raise RuntimeError(
RuntimeError: 
################### The last 1000 lines of exp/svs_train_raw_phn_None_zh/train.log ###################
                (linear_k): Linear(in_features=192, out_features=192, bias=True)
                (linear_v): Linear(in_features=192, out_features=192, bias=True)
                (linear_out): Linear(in_features=192, out_features=192, bias=True)
                (dropout): Dropout(p=0.1, inplace=False)
                (q_norm): Identity()
                (k_norm): Identity()
                (linear_pos): Linear(in_features=192, out_features=192, bias=False)
              )
              (feed_forward): MultiLayeredConv1d(
                (w_1): Conv1d(192, 768, kernel_size=(3,), stride=(1,), padding=(1,))
                (w_2): Conv1d(768, 192, kernel_size=(3,), stride=(1,), padding=(1,))
                (dropout): Dropout(p=0.1, inplace=False)
              )
              (feed_forward_macaron): MultiLayeredConv1d(
                (w_1): Conv1d(192, 768, kernel_size=(3,), stride=(1,), padding=(1,))
                (w_2): Conv1d(768, 192, kernel_size=(3,), stride=(1,), padding=(1,))
                (dropout): Dropout(p=0.1, inplace=False)
              )
              (norm_ff): LayerNorm((192,), eps=1e-12, elementwise_affine=True)
              (norm_mha): LayerNorm((192,), eps=1e-12, elementwise_affine=True)
              (norm_ff_macaron): LayerNorm((192,), eps=1e-12, elementwise_affine=True)
              (dropout): Dropout(p=0.1, inplace=False)
            )
            (2): EncoderLayer(
              (self_attn): RelPositionMultiHeadedAttention(
                (linear_q): Linear(in_features=192, out_features=192, bias=True)
                (linear_k): Linear(in_features=192, out_features=192, bias=True)
                (linear_v): Linear(in_features=192, out_features=192, bias=True)
                (linear_out): Linear(in_features=192, out_features=192, bias=True)
                (dropout): Dropout(p=0.1, inplace=False)
                (q_norm): Identity()
                (k_norm): Identity()
                (linear_pos): Linear(in_features=192, out_features=192, bias=False)
              )
              (feed_forward): MultiLayeredConv1d(
                (w_1): Conv1d(192, 768, kernel_size=(3,), stride=(1,), padding=(1,))
                (w_2): Conv1d(768, 192, kernel_size=(3,), stride=(1,), padding=(1,))
                (dropout): Dropout(p=0.1, inplace=False)
              )
              (feed_forward_macaron): MultiLayeredConv1d(
                (w_1): Conv1d(192, 768, kernel_size=(3,), stride=(1,), padding=(1,))
                (w_2): Conv1d(768, 192, kernel_size=(3,), stride=(1,), padding=(1,))
                (dropout): Dropout(p=0.1, inplace=False)
              )
              (norm_ff): LayerNorm((192,), eps=1e-12, elementwise_affine=True)
              (norm_mha): LayerNorm((192,), eps=1e-12, elementwise_affine=True)
              (norm_ff_macaron): LayerNorm((192,), eps=1e-12, elementwise_affine=True)
              (dropout): Dropout(p=0.1, inplace=False)
            )
            (3): EncoderLayer(
              (self_attn): RelPositionMultiHeadedAttention(
                (linear_q): Linear(in_features=192, out_features=192, bias=True)
                (linear_k): Linear(in_features=192, out_features=192, bias=True)
                (linear_v): Linear(in_features=192, out_features=192, bias=True)
                (linear_out): Linear(in_features=192, out_features=192, bias=True)
                (dropout): Dropout(p=0.1, inplace=False)
                (q_norm): Identity()
                (k_norm): Identity()
                (linear_pos): Linear(in_features=192, out_features=192, bias=False)
              )
              (feed_forward): MultiLayeredConv1d(
                (w_1): Conv1d(192, 768, kernel_size=(3,), stride=(1,), padding=(1,))
                (w_2): Conv1d(768, 192, kernel_size=(3,), stride=(1,), padding=(1,))
                (dropout): Dropout(p=0.1, inplace=False)
              )
              (feed_forward_macaron): MultiLayeredConv1d(
                (w_1): Conv1d(192, 768, kernel_size=(3,), stride=(1,), padding=(1,))
                (w_2): Conv1d(768, 192, kernel_size=(3,), stride=(1,), padding=(1,))
                (dropout): Dropout(p=0.1, inplace=False)
              )
              (norm_ff): LayerNorm((192,), eps=1e-12, elementwise_affine=True)
              (norm_mha): LayerNorm((192,), eps=1e-12, elementwise_affine=True)
              (norm_ff_macaron): LayerNorm((192,), eps=1e-12, elementwise_affine=True)
              (dropout): Dropout(p=0.1, inplace=False)
            )
            (4): EncoderLayer(
              (self_attn): RelPositionMultiHeadedAttention(
                (linear_q): Linear(in_features=192, out_features=192, bias=True)
                (linear_k): Linear(in_features=192, out_features=192, bias=True)
                (linear_v): Linear(in_features=192, out_features=192, bias=True)
                (linear_out): Linear(in_features=192, out_features=192, bias=True)
                (dropout): Dropout(p=0.1, inplace=False)
                (q_norm): Identity()
                (k_norm): Identity()
                (linear_pos): Linear(in_features=192, out_features=192, bias=False)
              )
              (feed_forward): MultiLayeredConv1d(
                (w_1): Conv1d(192, 768, kernel_size=(3,), stride=(1,), padding=(1,))
                (w_2): Conv1d(768, 192, kernel_size=(3,), stride=(1,), padding=(1,))
                (dropout): Dropout(p=0.1, inplace=False)
              )
              (feed_forward_macaron): MultiLayeredConv1d(
                (w_1): Conv1d(192, 768, kernel_size=(3,), stride=(1,), padding=(1,))
                (w_2): Conv1d(768, 192, kernel_size=(3,), stride=(1,), padding=(1,))
                (dropout): Dropout(p=0.1, inplace=False)
              )
              (norm_ff): LayerNorm((192,), eps=1e-12, elementwise_affine=True)
              (norm_mha): LayerNorm((192,), eps=1e-12, elementwise_affine=True)
              (norm_ff_macaron): LayerNorm((192,), eps=1e-12, elementwise_affine=True)
              (dropout): Dropout(p=0.1, inplace=False)
            )
            (5): EncoderLayer(
              (self_attn): RelPositionMultiHeadedAttention(
                (linear_q): Linear(in_features=192, out_features=192, bias=True)
                (linear_k): Linear(in_features=192, out_features=192, bias=True)
                (linear_v): Linear(in_features=192, out_features=192, bias=True)
                (linear_out): Linear(in_features=192, out_features=192, bias=True)
                (dropout): Dropout(p=0.1, inplace=False)
                (q_norm): Identity()
                (k_norm): Identity()
                (linear_pos): Linear(in_features=192, out_features=192, bias=False)
              )
              (feed_forward): MultiLayeredConv1d(
                (w_1): Conv1d(192, 768, kernel_size=(3,), stride=(1,), padding=(1,))
                (w_2): Conv1d(768, 192, kernel_size=(3,), stride=(1,), padding=(1,))
                (dropout): Dropout(p=0.1, inplace=False)
              )
              (feed_forward_macaron): MultiLayeredConv1d(
                (w_1): Conv1d(192, 768, kernel_size=(3,), stride=(1,), padding=(1,))
                (w_2): Conv1d(768, 192, kernel_size=(3,), stride=(1,), padding=(1,))
                (dropout): Dropout(p=0.1, inplace=False)
              )
              (norm_ff): LayerNorm((192,), eps=1e-12, elementwise_affine=True)
              (norm_mha): LayerNorm((192,), eps=1e-12, elementwise_affine=True)
              (norm_ff_macaron): LayerNorm((192,), eps=1e-12, elementwise_affine=True)
              (dropout): Dropout(p=0.1, inplace=False)
            )
          )
          (after_norm): LayerNorm((192,), eps=1e-12, elementwise_affine=True)
        )
        (proj): Conv1d(192, 1, kernel_size=(1,), stride=(1,))
        (global_conv): Conv1d(256, 192, kernel_size=(1,), stride=(1,))
      )
      (mel_decoder): Decoder(
        (prenet): Conv1d(194, 192, kernel_size=(3,), stride=(1,), padding=(1,))
        (decoder): Encoder(
          (embed): Sequential(
            (0): RelPositionalEncoding(
              (dropout): Dropout(p=0.0, inplace=False)
            )
          )
          (encoders): MultiSequential(
            (0): EncoderLayer(
              (self_attn): RelPositionMultiHeadedAttention(
                (linear_q): Linear(in_features=192, out_features=192, bias=True)
                (linear_k): Linear(in_features=192, out_features=192, bias=True)
                (linear_v): Linear(in_features=192, out_features=192, bias=True)
                (linear_out): Linear(in_features=192, out_features=192, bias=True)
                (dropout): Dropout(p=0.1, inplace=False)
                (q_norm): Identity()
                (k_norm): Identity()
                (linear_pos): Linear(in_features=192, out_features=192, bias=False)
              )
              (feed_forward): MultiLayeredConv1d(
                (w_1): Conv1d(192, 768, kernel_size=(3,), stride=(1,), padding=(1,))
                (w_2): Conv1d(768, 192, kernel_size=(3,), stride=(1,), padding=(1,))
                (dropout): Dropout(p=0.1, inplace=False)
              )
              (feed_forward_macaron): MultiLayeredConv1d(
                (w_1): Conv1d(192, 768, kernel_size=(3,), stride=(1,), padding=(1,))
                (w_2): Conv1d(768, 192, kernel_size=(3,), stride=(1,), padding=(1,))
                (dropout): Dropout(p=0.1, inplace=False)
              )
              (norm_ff): LayerNorm((192,), eps=1e-12, elementwise_affine=True)
              (norm_mha): LayerNorm((192,), eps=1e-12, elementwise_affine=True)
              (norm_ff_macaron): LayerNorm((192,), eps=1e-12, elementwise_affine=True)
              (dropout): Dropout(p=0.1, inplace=False)
            )
            (1): EncoderLayer(
              (self_attn): RelPositionMultiHeadedAttention(
                (linear_q): Linear(in_features=192, out_features=192, bias=True)
                (linear_k): Linear(in_features=192, out_features=192, bias=True)
                (linear_v): Linear(in_features=192, out_features=192, bias=True)
                (linear_out): Linear(in_features=192, out_features=192, bias=True)
                (dropout): Dropout(p=0.1, inplace=False)
                (q_norm): Identity()
                (k_norm): Identity()
                (linear_pos): Linear(in_features=192, out_features=192, bias=False)
              )
              (feed_forward): MultiLayeredConv1d(
                (w_1): Conv1d(192, 768, kernel_size=(3,), stride=(1,), padding=(1,))
                (w_2): Conv1d(768, 192, kernel_size=(3,), stride=(1,), padding=(1,))
                (dropout): Dropout(p=0.1, inplace=False)
              )
              (feed_forward_macaron): MultiLayeredConv1d(
                (w_1): Conv1d(192, 768, kernel_size=(3,), stride=(1,), padding=(1,))
                (w_2): Conv1d(768, 192, kernel_size=(3,), stride=(1,), padding=(1,))
                (dropout): Dropout(p=0.1, inplace=False)
              )
              (norm_ff): LayerNorm((192,), eps=1e-12, elementwise_affine=True)
              (norm_mha): LayerNorm((192,), eps=1e-12, elementwise_affine=True)
              (norm_ff_macaron): LayerNorm((192,), eps=1e-12, elementwise_affine=True)
              (dropout): Dropout(p=0.1, inplace=False)
            )
            (2): EncoderLayer(
              (self_attn): RelPositionMultiHeadedAttention(
                (linear_q): Linear(in_features=192, out_features=192, bias=True)
                (linear_k): Linear(in_features=192, out_features=192, bias=True)
                (linear_v): Linear(in_features=192, out_features=192, bias=True)
                (linear_out): Linear(in_features=192, out_features=192, bias=True)
                (dropout): Dropout(p=0.1, inplace=False)
                (q_norm): Identity()
                (k_norm): Identity()
                (linear_pos): Linear(in_features=192, out_features=192, bias=False)
              )
              (feed_forward): MultiLayeredConv1d(
                (w_1): Conv1d(192, 768, kernel_size=(3,), stride=(1,), padding=(1,))
                (w_2): Conv1d(768, 192, kernel_size=(3,), stride=(1,), padding=(1,))
                (dropout): Dropout(p=0.1, inplace=False)
              )
              (feed_forward_macaron): MultiLayeredConv1d(
                (w_1): Conv1d(192, 768, kernel_size=(3,), stride=(1,), padding=(1,))
                (w_2): Conv1d(768, 192, kernel_size=(3,), stride=(1,), padding=(1,))
                (dropout): Dropout(p=0.1, inplace=False)
              )
              (norm_ff): LayerNorm((192,), eps=1e-12, elementwise_affine=True)
              (norm_mha): LayerNorm((192,), eps=1e-12, elementwise_affine=True)
              (norm_ff_macaron): LayerNorm((192,), eps=1e-12, elementwise_affine=True)
              (dropout): Dropout(p=0.1, inplace=False)
            )
            (3): EncoderLayer(
              (self_attn): RelPositionMultiHeadedAttention(
                (linear_q): Linear(in_features=192, out_features=192, bias=True)
                (linear_k): Linear(in_features=192, out_features=192, bias=True)
                (linear_v): Linear(in_features=192, out_features=192, bias=True)
                (linear_out): Linear(in_features=192, out_features=192, bias=True)
                (dropout): Dropout(p=0.1, inplace=False)
                (q_norm): Identity()
                (k_norm): Identity()
                (linear_pos): Linear(in_features=192, out_features=192, bias=False)
              )
              (feed_forward): MultiLayeredConv1d(
                (w_1): Conv1d(192, 768, kernel_size=(3,), stride=(1,), padding=(1,))
                (w_2): Conv1d(768, 192, kernel_size=(3,), stride=(1,), padding=(1,))
                (dropout): Dropout(p=0.1, inplace=False)
              )
              (feed_forward_macaron): MultiLayeredConv1d(
                (w_1): Conv1d(192, 768, kernel_size=(3,), stride=(1,), padding=(1,))
                (w_2): Conv1d(768, 192, kernel_size=(3,), stride=(1,), padding=(1,))
                (dropout): Dropout(p=0.1, inplace=False)
              )
              (norm_ff): LayerNorm((192,), eps=1e-12, elementwise_affine=True)
              (norm_mha): LayerNorm((192,), eps=1e-12, elementwise_affine=True)
              (norm_ff_macaron): LayerNorm((192,), eps=1e-12, elementwise_affine=True)
              (dropout): Dropout(p=0.1, inplace=False)
            )
            (4): EncoderLayer(
              (self_attn): RelPositionMultiHeadedAttention(
                (linear_q): Linear(in_features=192, out_features=192, bias=True)
                (linear_k): Linear(in_features=192, out_features=192, bias=True)
                (linear_v): Linear(in_features=192, out_features=192, bias=True)
                (linear_out): Linear(in_features=192, out_features=192, bias=True)
                (dropout): Dropout(p=0.1, inplace=False)
                (q_norm): Identity()
                (k_norm): Identity()
                (linear_pos): Linear(in_features=192, out_features=192, bias=False)
              )
              (feed_forward): MultiLayeredConv1d(
                (w_1): Conv1d(192, 768, kernel_size=(3,), stride=(1,), padding=(1,))
                (w_2): Conv1d(768, 192, kernel_size=(3,), stride=(1,), padding=(1,))
                (dropout): Dropout(p=0.1, inplace=False)
              )
              (feed_forward_macaron): MultiLayeredConv1d(
                (w_1): Conv1d(192, 768, kernel_size=(3,), stride=(1,), padding=(1,))
                (w_2): Conv1d(768, 192, kernel_size=(3,), stride=(1,), padding=(1,))
                (dropout): Dropout(p=0.1, inplace=False)
              )
              (norm_ff): LayerNorm((192,), eps=1e-12, elementwise_affine=True)
              (norm_mha): LayerNorm((192,), eps=1e-12, elementwise_affine=True)
              (norm_ff_macaron): LayerNorm((192,), eps=1e-12, elementwise_affine=True)
              (dropout): Dropout(p=0.1, inplace=False)
            )
            (5): EncoderLayer(
              (self_attn): RelPositionMultiHeadedAttention(
                (linear_q): Linear(in_features=192, out_features=192, bias=True)
                (linear_k): Linear(in_features=192, out_features=192, bias=True)
                (linear_v): Linear(in_features=192, out_features=192, bias=True)
                (linear_out): Linear(in_features=192, out_features=192, bias=True)
                (dropout): Dropout(p=0.1, inplace=False)
                (q_norm): Identity()
                (k_norm): Identity()
                (linear_pos): Linear(in_features=192, out_features=192, bias=False)
              )
              (feed_forward): MultiLayeredConv1d(
                (w_1): Conv1d(192, 768, kernel_size=(3,), stride=(1,), padding=(1,))
                (w_2): Conv1d(768, 192, kernel_size=(3,), stride=(1,), padding=(1,))
                (dropout): Dropout(p=0.1, inplace=False)
              )
              (feed_forward_macaron): MultiLayeredConv1d(
                (w_1): Conv1d(192, 768, kernel_size=(3,), stride=(1,), padding=(1,))
                (w_2): Conv1d(768, 192, kernel_size=(3,), stride=(1,), padding=(1,))
                (dropout): Dropout(p=0.1, inplace=False)
              )
              (norm_ff): LayerNorm((192,), eps=1e-12, elementwise_affine=True)
              (norm_mha): LayerNorm((192,), eps=1e-12, elementwise_affine=True)
              (norm_ff_macaron): LayerNorm((192,), eps=1e-12, elementwise_affine=True)
              (dropout): Dropout(p=0.1, inplace=False)
            )
          )
          (after_norm): LayerNorm((192,), eps=1e-12, elementwise_affine=True)
        )
        (proj): Conv1d(192, 80, kernel_size=(1,), stride=(1,))
        (global_conv): Conv1d(256, 192, kernel_size=(1,), stride=(1,))
      )
      (prior_decoder): PriorDecoder(
        (prenet): Conv1d(194, 192, kernel_size=(3,), stride=(1,), padding=(1,))
        (decoder): Encoder(
          (embed): Sequential(
            (0): RelPositionalEncoding(
              (dropout): Dropout(p=0.0, inplace=False)
            )
          )
          (encoders): MultiSequential(
            (0): EncoderLayer(
              (self_attn): RelPositionMultiHeadedAttention(
                (linear_q): Linear(in_features=192, out_features=192, bias=True)
                (linear_k): Linear(in_features=192, out_features=192, bias=True)
                (linear_v): Linear(in_features=192, out_features=192, bias=True)
                (linear_out): Linear(in_features=192, out_features=192, bias=True)
                (dropout): Dropout(p=0.1, inplace=False)
                (q_norm): Identity()
                (k_norm): Identity()
                (linear_pos): Linear(in_features=192, out_features=192, bias=False)
              )
              (feed_forward): MultiLayeredConv1d(
                (w_1): Conv1d(192, 768, kernel_size=(3,), stride=(1,), padding=(1,))
                (w_2): Conv1d(768, 192, kernel_size=(3,), stride=(1,), padding=(1,))
                (dropout): Dropout(p=0.1, inplace=False)
              )
              (feed_forward_macaron): MultiLayeredConv1d(
                (w_1): Conv1d(192, 768, kernel_size=(3,), stride=(1,), padding=(1,))
                (w_2): Conv1d(768, 192, kernel_size=(3,), stride=(1,), padding=(1,))
                (dropout): Dropout(p=0.1, inplace=False)
              )
              (norm_ff): LayerNorm((192,), eps=1e-12, elementwise_affine=True)
              (norm_mha): LayerNorm((192,), eps=1e-12, elementwise_affine=True)
              (norm_ff_macaron): LayerNorm((192,), eps=1e-12, elementwise_affine=True)
              (dropout): Dropout(p=0.1, inplace=False)
            )
            (1): EncoderLayer(
              (self_attn): RelPositionMultiHeadedAttention(
                (linear_q): Linear(in_features=192, out_features=192, bias=True)
                (linear_k): Linear(in_features=192, out_features=192, bias=True)
                (linear_v): Linear(in_features=192, out_features=192, bias=True)
                (linear_out): Linear(in_features=192, out_features=192, bias=True)
                (dropout): Dropout(p=0.1, inplace=False)
                (q_norm): Identity()
                (k_norm): Identity()
                (linear_pos): Linear(in_features=192, out_features=192, bias=False)
              )
              (feed_forward): MultiLayeredConv1d(
                (w_1): Conv1d(192, 768, kernel_size=(3,), stride=(1,), padding=(1,))
                (w_2): Conv1d(768, 192, kernel_size=(3,), stride=(1,), padding=(1,))
                (dropout): Dropout(p=0.1, inplace=False)
              )
              (feed_forward_macaron): MultiLayeredConv1d(
                (w_1): Conv1d(192, 768, kernel_size=(3,), stride=(1,), padding=(1,))
                (w_2): Conv1d(768, 192, kernel_size=(3,), stride=(1,), padding=(1,))
                (dropout): Dropout(p=0.1, inplace=False)
              )
              (norm_ff): LayerNorm((192,), eps=1e-12, elementwise_affine=True)
              (norm_mha): LayerNorm((192,), eps=1e-12, elementwise_affine=True)
              (norm_ff_macaron): LayerNorm((192,), eps=1e-12, elementwise_affine=True)
              (dropout): Dropout(p=0.1, inplace=False)
            )
            (2): EncoderLayer(
              (self_attn): RelPositionMultiHeadedAttention(
                (linear_q): Linear(in_features=192, out_features=192, bias=True)
                (linear_k): Linear(in_features=192, out_features=192, bias=True)
                (linear_v): Linear(in_features=192, out_features=192, bias=True)
                (linear_out): Linear(in_features=192, out_features=192, bias=True)
                (dropout): Dropout(p=0.1, inplace=False)
                (q_norm): Identity()
                (k_norm): Identity()
                (linear_pos): Linear(in_features=192, out_features=192, bias=False)
              )
              (feed_forward): MultiLayeredConv1d(
                (w_1): Conv1d(192, 768, kernel_size=(3,), stride=(1,), padding=(1,))
                (w_2): Conv1d(768, 192, kernel_size=(3,), stride=(1,), padding=(1,))
                (dropout): Dropout(p=0.1, inplace=False)
              )
              (feed_forward_macaron): MultiLayeredConv1d(
                (w_1): Conv1d(192, 768, kernel_size=(3,), stride=(1,), padding=(1,))
                (w_2): Conv1d(768, 192, kernel_size=(3,), stride=(1,), padding=(1,))
                (dropout): Dropout(p=0.1, inplace=False)
              )
              (norm_ff): LayerNorm((192,), eps=1e-12, elementwise_affine=True)
              (norm_mha): LayerNorm((192,), eps=1e-12, elementwise_affine=True)
              (norm_ff_macaron): LayerNorm((192,), eps=1e-12, elementwise_affine=True)
              (dropout): Dropout(p=0.1, inplace=False)
            )
            (3): EncoderLayer(
              (self_attn): RelPositionMultiHeadedAttention(
                (linear_q): Linear(in_features=192, out_features=192, bias=True)
                (linear_k): Linear(in_features=192, out_features=192, bias=True)
                (linear_v): Linear(in_features=192, out_features=192, bias=True)
                (linear_out): Linear(in_features=192, out_features=192, bias=True)
                (dropout): Dropout(p=0.1, inplace=False)
                (q_norm): Identity()
                (k_norm): Identity()
                (linear_pos): Linear(in_features=192, out_features=192, bias=False)
              )
              (feed_forward): MultiLayeredConv1d(
                (w_1): Conv1d(192, 768, kernel_size=(3,), stride=(1,), padding=(1,))
                (w_2): Conv1d(768, 192, kernel_size=(3,), stride=(1,), padding=(1,))
                (dropout): Dropout(p=0.1, inplace=False)
              )
              (feed_forward_macaron): MultiLayeredConv1d(
                (w_1): Conv1d(192, 768, kernel_size=(3,), stride=(1,), padding=(1,))
                (w_2): Conv1d(768, 192, kernel_size=(3,), stride=(1,), padding=(1,))
                (dropout): Dropout(p=0.1, inplace=False)
              )
              (norm_ff): LayerNorm((192,), eps=1e-12, elementwise_affine=True)
              (norm_mha): LayerNorm((192,), eps=1e-12, elementwise_affine=True)
              (norm_ff_macaron): LayerNorm((192,), eps=1e-12, elementwise_affine=True)
              (dropout): Dropout(p=0.1, inplace=False)
            )
            (4): EncoderLayer(
              (self_attn): RelPositionMultiHeadedAttention(
                (linear_q): Linear(in_features=192, out_features=192, bias=True)
                (linear_k): Linear(in_features=192, out_features=192, bias=True)
                (linear_v): Linear(in_features=192, out_features=192, bias=True)
                (linear_out): Linear(in_features=192, out_features=192, bias=True)
                (dropout): Dropout(p=0.1, inplace=False)
                (q_norm): Identity()
                (k_norm): Identity()
                (linear_pos): Linear(in_features=192, out_features=192, bias=False)
              )
              (feed_forward): MultiLayeredConv1d(
                (w_1): Conv1d(192, 768, kernel_size=(3,), stride=(1,), padding=(1,))
                (w_2): Conv1d(768, 192, kernel_size=(3,), stride=(1,), padding=(1,))
                (dropout): Dropout(p=0.1, inplace=False)
              )
              (feed_forward_macaron): MultiLayeredConv1d(
                (w_1): Conv1d(192, 768, kernel_size=(3,), stride=(1,), padding=(1,))
                (w_2): Conv1d(768, 192, kernel_size=(3,), stride=(1,), padding=(1,))
                (dropout): Dropout(p=0.1, inplace=False)
              )
              (norm_ff): LayerNorm((192,), eps=1e-12, elementwise_affine=True)
              (norm_mha): LayerNorm((192,), eps=1e-12, elementwise_affine=True)
              (norm_ff_macaron): LayerNorm((192,), eps=1e-12, elementwise_affine=True)
              (dropout): Dropout(p=0.1, inplace=False)
            )
            (5): EncoderLayer(
              (self_attn): RelPositionMultiHeadedAttention(
                (linear_q): Linear(in_features=192, out_features=192, bias=True)
                (linear_k): Linear(in_features=192, out_features=192, bias=True)
                (linear_v): Linear(in_features=192, out_features=192, bias=True)
                (linear_out): Linear(in_features=192, out_features=192, bias=True)
                (dropout): Dropout(p=0.1, inplace=False)
                (q_norm): Identity()
                (k_norm): Identity()
                (linear_pos): Linear(in_features=192, out_features=192, bias=False)
              )
              (feed_forward): MultiLayeredConv1d(
                (w_1): Conv1d(192, 768, kernel_size=(3,), stride=(1,), padding=(1,))
                (w_2): Conv1d(768, 192, kernel_size=(3,), stride=(1,), padding=(1,))
                (dropout): Dropout(p=0.1, inplace=False)
              )
              (feed_forward_macaron): MultiLayeredConv1d(
                (w_1): Conv1d(192, 768, kernel_size=(3,), stride=(1,), padding=(1,))
                (w_2): Conv1d(768, 192, kernel_size=(3,), stride=(1,), padding=(1,))
                (dropout): Dropout(p=0.1, inplace=False)
              )
              (norm_ff): LayerNorm((192,), eps=1e-12, elementwise_affine=True)
              (norm_mha): LayerNorm((192,), eps=1e-12, elementwise_affine=True)
              (norm_ff_macaron): LayerNorm((192,), eps=1e-12, elementwise_affine=True)
              (dropout): Dropout(p=0.1, inplace=False)
            )
          )
          (after_norm): LayerNorm((192,), eps=1e-12, elementwise_affine=True)
        )
        (proj): Conv1d(192, 384, kernel_size=(1,), stride=(1,))
        (conv): Conv1d(256, 192, kernel_size=(1,), stride=(1,))
      )
      (global_emb): Embedding(2, 256)
      (dropout): Dropout(p=0.2, inplace=False)
    )
    (discriminator): VISinger2Discriminator(
      (msd): HiFiGANMultiScaleDiscriminator(
        (discriminators): ModuleList(
          (0): HiFiGANScaleDiscriminator(
            (layers): ModuleList(
              (0): Sequential(
                (0): Conv1d(1, 128, kernel_size=(15,), stride=(1,), padding=(7,))
                (1): LeakyReLU(negative_slope=0.1)
              )
              (1): Sequential(
                (0): Conv1d(128, 128, kernel_size=(41,), stride=(4,), padding=(20,), groups=4)
                (1): LeakyReLU(negative_slope=0.1)
              )
              (2): Sequential(
                (0): Conv1d(128, 256, kernel_size=(41,), stride=(4,), padding=(20,), groups=16)
                (1): LeakyReLU(negative_slope=0.1)
              )
              (3): Sequential(
                (0): Conv1d(256, 512, kernel_size=(41,), stride=(4,), padding=(20,), groups=64)
                (1): LeakyReLU(negative_slope=0.1)
              )
              (4): Sequential(
                (0): Conv1d(512, 1024, kernel_size=(41,), stride=(4,), padding=(20,), groups=256)
                (1): LeakyReLU(negative_slope=0.1)
              )
              (5): Sequential(
                (0): Conv1d(1024, 1024, kernel_size=(5,), stride=(1,), padding=(2,))
                (1): LeakyReLU(negative_slope=0.1)
              )
              (6): Conv1d(1024, 1, kernel_size=(3,), stride=(1,), padding=(1,))
            )
          )
        )
      )
      (mpd): HiFiGANMultiPeriodDiscriminator(
        (discriminators): ModuleList(
          (0-4): 5 x HiFiGANPeriodDiscriminator(
            (convs): ModuleList(
              (0): Sequential(
                (0): Conv2d(1, 32, kernel_size=(5, 1), stride=(3, 1), padding=(2, 0))
                (1): LeakyReLU(negative_slope=0.1)
              )
              (1): Sequential(
                (0): Conv2d(32, 128, kernel_size=(5, 1), stride=(3, 1), padding=(2, 0))
                (1): LeakyReLU(negative_slope=0.1)
              )
              (2): Sequential(
                (0): Conv2d(128, 512, kernel_size=(5, 1), stride=(3, 1), padding=(2, 0))
                (1): LeakyReLU(negative_slope=0.1)
              )
              (3): Sequential(
                (0): Conv2d(512, 1024, kernel_size=(5, 1), stride=(3, 1), padding=(2, 0))
                (1): LeakyReLU(negative_slope=0.1)
              )
              (4): Sequential(
                (0): Conv2d(1024, 1024, kernel_size=(5, 1), stride=(1, 1), padding=(2, 0))
                (1): LeakyReLU(negative_slope=0.1)
              )
            )
            (output_conv): Conv2d(1024, 1, kernel_size=(2, 1), stride=(1, 1), padding=(1, 0))
          )
        )
      )
      (mfd): MultiFrequencyDiscriminator(
        (stfts): ModuleList(
          (0-5): 6 x TorchSTFT(
            (mel_scale): MelScale()
          )
        )
        (discriminators): ModuleList(
          (0-4): 5 x BaseFrequenceDiscriminator(
            (discriminators): ModuleList(
              (0): Sequential(
                (0): LeakyReLU(negative_slope=0.2, inplace=True)
                (1): ReflectionPad2d((1, 1, 1, 1))
                (2): Conv2d(2, 8, kernel_size=(3, 3), stride=(1, 1))
              )
              (1): Sequential(
                (0): LeakyReLU(negative_slope=0.2, inplace=True)
                (1): ReflectionPad2d((1, 1, 1, 1))
                (2): Conv2d(8, 16, kernel_size=(3, 3), stride=(2, 2))
              )
              (2): Sequential(
                (0): LeakyReLU(negative_slope=0.2, inplace=True)
                (1): ReflectionPad2d((1, 1, 1, 1))
                (2): Conv2d(16, 32, kernel_size=(3, 3), stride=(1, 1))
              )
              (3): Sequential(
                (0): LeakyReLU(negative_slope=0.2, inplace=True)
                (1): ReflectionPad2d((1, 1, 1, 1))
                (2): Conv2d(32, 64, kernel_size=(3, 3), stride=(2, 2))
              )
              (4): Sequential(
                (0): LeakyReLU(negative_slope=0.2, inplace=True)
                (1): ReflectionPad2d((1, 1, 1, 1))
                (2): Conv2d(64, 128, kernel_size=(3, 3), stride=(1, 1))
              )
              (5): Sequential(
                (0): LeakyReLU(negative_slope=0.2, inplace=True)
                (1): ReflectionPad2d((1, 1, 1, 1))
                (2): Conv2d(128, 256, kernel_size=(3, 3), stride=(2, 2))
              )
              (6): Sequential(
                (0): Identity()
                (1): ReflectionPad2d((1, 1, 1, 1))
                (2): Conv2d(256, 1, kernel_size=(3, 3), stride=(1, 1))
              )
            )
          )
        )
      )
    )
    (generator_adv_loss): GeneratorAdversarialLoss()
    (discriminator_adv_loss): DiscriminatorAdversarialLoss()
    (feat_match_loss): FeatureMatchLoss()
    (mel_loss): MelSpectrogramLoss(
      (wav_to_mel): LogMelFbank(
        (stft): Stft(n_fft=2048, win_length=2048, hop_length=256, center=True, normalized=False, onesided=True)
…
