…
    (logmel): LogMel(sr=24000, n_fft=2048, n_mels=80, fmin=0, fmax=22050, htk=False)
  )
  (score_feats_extract): SyllableScoreFeats(win_length=1200, hop_length=300, center=True, )
  (label_extract): SyllableScoreFeats(win_length=1200, hop_length=300, center=True, )
  (pitch_extract): Dio()
  (duration_extract): SyllableScoreFeats(win_length=1200, hop_length=300, center=True, )
  (normalize): GlobalMVN(stats_file=exp/svs_stats_raw_phn_None_zh/train/feats_stats.npz, norm_means=True, norm_vars=True)
  (pitch_normalize): GlobalMVN(stats_file=exp/svs_stats_raw_phn_None_zh/train/pitch_stats.npz, norm_means=True, norm_vars=True)
  (svs): NaiveRNN(
    (encoder_input_layer): Embedding(63, 512, padding_idx=0)
    (midi_encoder_input_layer): Embedding(129, 512, padding_idx=0)
    (encoder): LSTM(512, 512, num_layers=3, batch_first=True, dropout=0.1, bidirectional=True)
    (midi_encoder): LSTM(512, 512, num_layers=3, batch_first=True, dropout=0.1, bidirectional=True)
    (midi_projection): Linear(in_features=1024, out_features=1024, bias=True)
    (decoder): LSTM(512, 512, num_layers=5, batch_first=True, dropout=0.1, bidirectional=True)
    (feat_out): Linear(in_features=1024, out_features=80, bias=True)
    (postnet): Postnet(
      (postnet): ModuleList(
        (0): Sequential(
          (0): Conv1d(80, 512, kernel_size=(5,), stride=(1,), padding=(2,), bias=False)
          (1): BatchNorm1d(512, eps=1e-05, momentum=0.1, affine=True, track_running_stats=True)
          (2): Tanh()
          (3): Dropout(p=0.5, inplace=False)
        )
        (1-3): 3 x Sequential(
          (0): Conv1d(512, 512, kernel_size=(5,), stride=(1,), padding=(2,), bias=False)
          (1): BatchNorm1d(512, eps=1e-05, momentum=0.1, affine=True, track_running_stats=True)
          (2): Tanh()
          (3): Dropout(p=0.5, inplace=False)
        )
        (4): Sequential(
          (0): Conv1d(512, 80, kernel_size=(5,), stride=(1,), padding=(2,), bias=False)
          (1): BatchNorm1d(80, eps=1e-05, momentum=0.1, affine=True, track_running_stats=True)
          (2): Dropout(p=0.5, inplace=False)
        )
      )
    )
    (criterion): NaiveRNNLoss(
      (l1_criterion): L1Loss()
      (mse_criterion): MSELoss()
    )
  )
)

Model summary:
    Class Name: ESPnetSVSModel
    Total Number of model parameters: 68.58 M
    Number of trainable parameters: 68.58 M (100.0%)
    Size: 274.32 MB
…
